model_asl/keypoint_classifier/keypoint_classifier.tflite (tflite, 8680 bytes, 6 tensors)

sequential/dense/BiasAdd/ReadVariableOp f4 [64]
00000000: 10b5 92be 611d 813e ef0d b5bd feb5 37bf
00000010: 0eec 54bf e7d7 a1be 42ba 10bf 18c5 65be
00000020: 63bc 673e 4bd0 0abf c40f 4c3e 5745 e2bd
00000030: 9543 913d 79be 3cbe 05c2 05bf 8cfc 36be
00000040: dc55 cd39 36bb 4cbf f5c2 533e 1da8 aabe
00000050: 3eaf ffbe bf25 28bd 42d5 0ebe d6b5 90be
00000060: afd6 b73e eb35 90be d8c0 11bf 18c9 6dbe
00000070: e72f 4a3e 6cae a13e 5ab4 9abe 743f 053e
00000080: b3df 37be 70be 16be 6340 50be 4b70 96be
00000090: 5565 44bf 1db6 0b3e c463 54bf 0569 babd
000000a0: 82af b4bd b05b 4f3e 9766 1cbf f110 46be
000000b0: 00db 50bf 79a9 90be e79a 07bf dfb8 11be
000000c0: d78e 64bf 09e1 c3bd 9dac 923b 37e0 89be
000000d0: 83d7 35be 39af 8cbf 8a28 413e a584 053e
000000e0: 8b4d 133c 23ae 56be f39e 38be 9e2f 4c3c
000000f0: 399d bebe 5648 14bf e033 3abf 0de5 1f3d
-0.28653765 0.25217727 -0.08840548 -0.71762073 -0.8317269 -0.31610033 -0.56534207 -0.22438467
0.22630458 -0.5422408 0.19927889 -0.11048382 0.070929684 -0.18432035 -0.52249175 -0.17869776
0.00039164617 -0.7997316 0.20679839 -0.33331385 -0.49938387 -0.041051622 -0.13948539 -0.2826373
0.35905978 -0.28166136 -0.5693488 -0.23221242 0.19744836 0.31578386 -0.30215722 0.13012487
-0.17956428 -0.14721084 -0.20337062 -0.29382548 -0.7671712 0.1364369 -0.8296473 -0.09102062
-0.08822538 0.2024982 -0.6109404 -0.193424 -0.8158417 -0.28254297 -0.5297074 -0.14230679
-0.89280456 -0.095644064 0.0044761435 -0.26928875 -0.17757992 -1.0990974 0.1886312 0.13038881
0.008990656 -0.20964865 -0.18029384 0.012462525 -0.37229326 -0.57922876 -0.72735405 0.0390368

sequential/dense_2/BiasAdd/ReadVariableOp f4 [36]
00000000: a950 c6be 32e8 eb3e b327 60bf 8b05 7e3f
00000010: 6c14 99bc 2731 373d 013d c3bd ef80 8fbe
00000020: d80c 793f 8140 1c3e 3c2b 3c3e 2d5d 493f
00000030: f279 95be b769 f5be 1ad7 e03c 779a 9c3d
00000040: 1559 083f 3b49 ed3e d495 17bf 9cc5 67bf
00000050: 3909 1b3f 5907 143f 0871 9a3e df98 4b3e
00000060: ac67 19bf 111e c23e 8828 27bf 0ed4 d43d
00000070: b083 fb3d 6c31 61bd fac3 a03e 295d a73d
00000080: bff3 023d 328a c7be 2bf9 e2be 1889 e7bb
-0.38733414 0.46075588 -0.87560576 0.9922721 -0.018686496 0.04472461 -0.0953312 -0.28028056
0.97285223 0.15258981 0.18375868 0.786578 -0.291946 -0.47932217 0.027446318 0.07646649
0.5326093 0.46344933 -0.59212995 -0.905359 0.6056095 0.5782371 0.3016436 0.19882534
-0.59923816 0.37913564 -0.6529622 0.10392009 0.12280977 -0.054978773 0.31399518 0.08172066
0.031970736 -0.38972622 -0.44330725 -0.0070659034

sequential/dense_1/BiasAdd/ReadVariableOp f4 [32]
00000000: 7665 803f a97d eb3e 3538 78be 1351 1c3f
00000010: 0284 f03d a849 073e 13f2 efbd 8176 12bf
00000020: e9f4 0b3f 771d 12bf 2029 153e abda cfbd
00000030: 327e f53b 0284 633f 450d 11bf d27d 6f3f
00000040: bb58 a83e bc9a 93be bb49 b23e 6d1c 143d
00000050: 5dfa 26be 0070 77bf b2f9 a03f 5fe7 27bf
00000060: e3ee 773f 5011 8abc 17d5 713f 60fe 633e
00000070: 2ce1 f03e fef1 493f c173 1f3f 3ce2 1a3e
1.0030963 0.4599431 -0.24240191 0.6106121 0.117439285 0.13211691 -0.11716094 -0.5721207
0.5467058 -0.5707621 0.14566469 -0.101491295 0.0074918503 0.888733 -0.5666087 0.9355136
0.32880196 -0.2882899 0.34821877 0.03615992 -0.16306444 -0.96655273 1.2576201 -0.6558742
0.9684889 -0.016853958 0.94465774 0.22265005 0.47046793 0.78884876 0.62286 0.15125364

sequential/dense/MatMul i1 [64, 42] scale=0.012415592 zero_point=0
00000000: f80d 0ffb 06fe 1d05 3bfe f701 06ff 1c03
00000010: 2003 ec04 1001 2c04 1afb 0f07 2605 4502
00000020: 3100 0afe 1cff 2607 3501 eff6 ded3 edde
00000030: 00df 14b8 ff05 ed03 e0ff d700 0608 0eff
00000040: f003 ee02 2104 1306 0f0b 200a 1a0b 1c0d
00000050: 1b0d 120b 070d 321c 1cff 0f04 e300 0d01
00000060: eafe ddf4 dbf6 0a07 ee05 f60a f30a 0b0d
00000070: e310 ee12 e005 f407 f506 0116 0007 0f04
00000080: 0415 fb05 0204 0404 ff06 feff 0002 0600
00000090: 0004 f602 fcfe fefc 0504 f6fe f2f1 0418
000000a0: 01fe f2fc e4b9 d3d8 13f2 2903 3705 56fe
000000b0: 4d01 01fb f1fe f8ff f004 f3fa fcfb 00ff
000000c0: 0800 def0 e0fa ebf7 fffc e5fd e2f5 f007
000000d0: 03f7 0cf5 f6ee f7f9 14fb 75e5 12fb 0cfe
000000e0: 10fe 0d00 07fd e8fc cafe cffd f100 ea02
000000f0: e70e f410 ed05 df0a e112 f817 1207 1729
-0.09932473 0.16140269 0.18623388 -0.062077958 0.07449355 -0.024831183 0.36005217 0.062077958
0.7325199 -0.024831183 -0.11174032 0.012415592 0.07449355 -0.012415592 0.34763658 0.037246775
0.39729893 0.037246775 -0.24831183 0.049662367 0.19864947 0.012415592 0.54628605 0.049662367
0.32280537 -0.062077958 0.18623388 0.086909145 0.4717925 0.062077958 0.8566758 0.024831183
0.608364 0.0 0.124155916 -0.024831183 0.34763658 -0.012415592 0.4717925 0.086909145
0.65802634 0.012415592 -0.21106505 -0.124155916 -0.4221301 -0.55870163 -0.23589624 -0.4221301
0.0 -0.40971452 0.24831183 -0.89392257 -0.012415592 0.062077958 -0.23589624 0.037246775
-0.39729893 -0.012415592 -0.5090393 0.0 0.07449355 0.09932473 0.17381829 -0.012415592
-0.19864947 0.037246775 -0.22348064 0.024831183 0.40971452 0.049662367 0.23589624 0.07449355
0.18623388 0.13657151 0.39729893 0.124155916 0.32280537 0.13657151 0.34763658 0.16140269
0.33522096 0.16140269 0.22348064 0.13657151 0.086909145 0.16140269 0.6207796 0.34763658
0.34763658 -0.012415592 0.18623388 0.049662367 -0.36005217 0.0 0.16140269 0.012415592
-0.27314302 -0.024831183 -0.4345457 -0.1489871 -0.4593769 -0.124155916 0.124155916 0.086909145
-0.22348064 0.062077958 -0.124155916 0.124155916 -0.16140269 0.124155916 0.13657151 0.16140269
-0.36005217 0.19864947 -0.22348064 0.22348064 -0.39729893 0.062077958 -0.1489871 0.086909145
-0.13657151 0.07449355 0.012415592 0.27314302 0.0 0.086909145 0.18623388 0.049662367
0.049662367 0.26072744 -0.062077958 0.062077958 0.024831183 0.049662367 0.049662367 0.049662367
-0.012415592 0.07449355 -0.024831183 -0.012415592 0.0 0.024831183 0.07449355 0.0
0.0 0.049662367 -0.124155916 0.024831183 -0.049662367 -0.024831183 -0.024831183 -0.049662367
0.062077958 0.049662367 -0.124155916 -0.024831183 -0.17381829 -0.18623388 0.049662367 0.2979742
0.012415592 -0.024831183 -0.17381829 -0.049662367 -0.34763658 -0.881507 -0.55870163 -0.49662367
0.23589624 -0.17381829 0.5090393 0.037246775 0.6828575 0.062077958 1.0677409 -0.024831183
0.95600057 0.012415592 0.012415592 -0.062077958 -0.18623388 -0.024831183 -0.09932473 -0.012415592
-0.19864947 0.049662367 -0.16140269 -0.07449355 -0.049662367 -0.062077958 0.0 -0.012415592
0.09932473 0.0 -0.4221301 -0.19864947 -0.39729893 -0.07449355 -0.26072744 -0.11174032
-0.012415592 -0.049662367 -0.33522096 -0.037246775 -0.37246776 -0.13657151 -0.19864947 0.086909145
0.037246775 -0.11174032 0.1489871 -0.13657151 -0.124155916 -0.22348064 -0.11174032 -0.086909145
0.24831183 -0.062077958 1.4526242 -0.33522096 0.22348064 -0.062077958 0.1489871 -0.024831183
0.19864947 -0.024831183 0.16140269 0.0 0.086909145 -0.037246775 -0.2979742 -0.049662367
-0.6704419 -0.024831183 -0.608364 -0.037246775 -0.18623388 0.0 -0.27314302 0.024831183
-0.3103898 0.17381829 -0.1489871 0.19864947 -0.23589624 0.062077958 -0.40971452 0.124155916
-0.38488334 0.22348064 -0.09932473 0.2855586 0.22348064 0.086909145 0.2855586 0.5090393

sequential/dense_1/MatMul i1 [32, 64] scale=0.012395438 zero_point=0
00000000: 0302 e6f9 01f8 fbf1 43f8 191a 1210 0ef9
00000010: fc1c effe 0400 1006 15e0 06ed fb08 c0f6
00000020: f71e fbf5 07f4 0304 e0f2 fb07 fbca fb04
00000030: fd2b efe4 0401 1a05 1a17 3604 fafb 01ee
00000040: c3e7 f239 3d15 ebd1 01f7 d2e4 0108 f8ef
00000050: fc05 07e9 0fec f6e9 ffef 0a41 ec27 fe04
00000060: eff2 0808 feca 1bf5 2f01 07f3 1612 36f4
00000070: 08fb c1ed 1501 14e7 c2fb f8ff 483b 3a07
00000080: cd0d 1705 1f09 ea28 16ff 26c0 0f15 04f7
00000090: fd06 18cb 0ffe d607 040e fe28 07df 1118
000000a0: 201a f7ff 050c 0406 1920 08e4 1d20 1b06
000000b0: 1702 1403 0502 000f 04e6 0400 161b 2519
000000c0: f1f6 fdf9 f5d8 f0f5 02f4 3002 3823 0904
000000d0: d616 0719 d2ec 13f6 0801 fd14 0d0c eaf2
000000e0: f618 f80d 1006 0b07 f8d4 f6f2 06e5 fb03
000000f0: 0b30 f0d8 cf02 effc e90e 590a edff d2fb
0.037186313 0.024790876 -0.3222814 -0.08676806 0.012395438 -0.0991635 -0.06197719 -0.18593156
0.83049434 -0.0991635 0.30988595 0.3222814 0.22311789 0.198327 0.17353612 -0.08676806
-0.04958175 0.34707224 -0.21072245 -0.024790876 0.04958175 0.0 0.198327 0.07437263
0.26030418 -0.396654 0.07437263 -0.23551331 -0.06197719 0.0991635 -0.793308 -0.12395438
-0.111558944 0.37186313 -0.06197719 -0.13634981 0.08676806 -0.14874525 0.037186313 0.04958175
-0.396654 -0.17353612 -0.06197719 0.08676806 -0.06197719 -0.66935366 -0.06197719 0.04958175
-0.037186313 0.5330038 -0.21072245 -0.34707224 0.04958175 0.012395438 0.3222814 0.06197719
0.3222814 0.28509507 0.66935366 0.04958175 -0.07437263 -0.06197719 0.012395438 -0.22311789
-0.7561217 -0.30988595 -0.17353612 0.7065399 0.7561217 0.26030418 -0.26030418 -0.5825856
0.012395438 -0.111558944 -0.57019013 -0.34707224 0.012395438 0.0991635 -0.0991635 -0.21072245
-0.04958175 0.06197719 0.08676806 -0.28509507 0.18593156 -0.24790876 -0.12395438 -0.28509507
-0.012395438 -0.21072245 0.12395438 0.80570346 -0.24790876 0.48342207 -0.024790876 0.04958175
-0.21072245 -0.17353612 0.0991635 0.0991635 -0.024790876 -0.66935366 0.33467683 -0.13634981
0.5825856 0.012395438 0.08676806 -0.1611407 0.27269962 0.22311789 0.66935366 -0.14874525
0.0991635 -0.06197719 -0.7809126 -0.23551331 0.26030418 0.012395438 0.24790876 -0.30988595
-0.76851714 -0.06197719 -0.0991635 -0.012395438 0.89247155 0.7313308 0.7189354 0.08676806
-0.63216734 0.1611407 0.28509507 0.06197719 0.38425857 0.111558944 -0.27269962 0.4958175
0.27269962 -0.012395438 0.47102663 -0.793308 0.18593156 0.26030418 0.04958175 -0.111558944
-0.037186313 0.07437263 0.2974905 -0.6569582 0.18593156 -0.024790876 -0.52060837 0.08676806
0.04958175 0.17353612 -0.024790876 0.4958175 0.08676806 -0.40904945 0.21072245 0.2974905
0.396654 0.3222814 -0.111558944 -0.012395438 0.06197719 0.14874525 0.04958175 0.07437263
0.30988595 0.396654 0.0991635 -0.34707224 0.3594677 0.396654 0.33467683 0.07437263
0.28509507 0.024790876 0.24790876 0.037186313 0.06197719 0.024790876 0.0 0.18593156
0.04958175 -0.3222814 0.04958175 0.0 0.27269962 0.33467683 0.4586312 0.30988595
-0.18593156 -0.12395438 -0.037186313 -0.08676806 -0.13634981 -0.4958175 -0.198327 -0.13634981
0.024790876 -0.14874525 0.594981 0.024790876 0.6941445 0.43384033 0.111558944 0.04958175
-0.52060837 0.27269962 0.08676806 0.30988595 -0.57019013 -0.24790876 0.23551331 -0.12395438
0.0991635 0.012395438 -0.037186313 0.24790876 0.1611407 0.14874525 -0.27269962 -0.17353612
-0.12395438 0.2974905 -0.0991635 0.1611407 0.198327 0.07437263 0.13634981 0.08676806
-0.0991635 -0.54539925 -0.12395438 -0.17353612 0.07437263 -0.33467683 -0.06197719 0.037186313
0.13634981 0.594981 -0.198327 -0.4958175 -0.60737646 0.024790876 -0.21072245 -0.04958175
-0.28509507 0.17353612 1.103194 0.12395438 -0.23551331 -0.012395438 -0.57019013 -0.06197719

sequential/dense_2/MatMul i1 [36, 32] scale=0.015160479 zero_point=0
00000000: d206 d5ed e3f0 d707 fc05 052b f6f1 02ed
00000010: 06e8 f11a 05fd fb09 090a d00e fed2 040c
00000020: 0c1c fd22 02f6 d3ec 06f1 beec 1ddc fa23
00000030: 12f3 00e8 e094 0506 24d3 faf7 d3d4 d90d
00000040: 0411 0f0f 1cf3 f011 0e1e f5e1 0f01 09f8
00000050: 1622 12de 0508 a5fd e5e6 f4d2 00d4 e0fc
00000060: 0f04 cfe1 dbf1 d8c7 24f7 0be5 fb1d f105
00000070: 0c36 21d7 07e6 1bf8 ed06 14fd fb16 f3e4
00000080: 0113 dc11 0bfa c8f3 e213 130b f8c4 02fb
00000090: 1ef8 ec02 06e8 14fd 1be6 ddeb 11c4 e2dc
000000a0: e91f 0417 1af5 ecff 0cf9 e4f8 1bb6 0ae9
000000b0: 03fb fb0a fbc4 f2ff fa18 05dc 01da ed25
000000c0: c212 13da b605 1be0 18d2 0110 bc19 d9ec
000000d0: 0a0d eef0 f6ea eae6 cd22 fc09 00fe 1000
000000e0: 01ec 08f9 ca03 13e2 02d6 c5fb fa15 f3d7
000000f0: 1af6 caf4 d3f9 f803 c814 d6fc 121e 170d
-0.69738203 0.09096287 -0.6519006 -0.2880491 -0.43965387 -0.24256766 -0.62157965 0.10612335
-0.060641915 0.07580239 0.07580239 0.6519006 -0.15160479 -0.22740719 0.030320957 -0.2880491
0.09096287 -0.3638515 -0.22740719 0.39417243 0.07580239 -0.045481436 -0.07580239 0.1364443
0.1364443 0.15160479 -0.727703 0.2122467 -0.030320957 -0.69738203 0.060641915 0.18192574
0.18192574 0.4244934 -0.045481436 0.51545626 0.030320957 -0.15160479 -0.68222153 -0.30320957
0.09096287 -0.22740719 -1.0005916 -0.30320957 0.43965387 -0.5457772 -0.09096287 0.53061676
0.2728886 -0.19708622 0.0 -0.3638515 -0.48513532 -1.6373317 0.07580239 0.09096287
0.5457772 -0.68222153 -0.09096287 -0.1364443 -0.68222153 -0.6670611 -0.59125865 0.19708622
0.060641915 0.25772813 0.22740719 0.22740719 0.4244934 -0.19708622 -0.24256766 0.25772813
0.2122467 0.45481437 -0.16676527 -0.46997485 0.22740719 0.015160479 0.1364443 -0.12128383
0.33353055 0.51545626 0.2728886 -0.51545626 0.07580239 0.12128383 -1.3796035 -0.045481436
-0.40933293 -0.39417243 -0.18192574 -0.69738203 0.0 -0.6670611 -0.48513532 -0.060641915
0.22740719 0.060641915 -0.7428635 -0.46997485 -0.5609377 -0.22740719 -0.60641915 -0.8641473
0.5457772 -0.1364443 0.16676527 -0.40933293 -0.07580239 0.43965387 -0.22740719 0.07580239
0.18192574 0.81866586 0.5002958 -0.62157965 0.10612335 -0.39417243 0.40933293 -0.12128383
-0.2880491 0.09096287 0.30320957 -0.045481436 -0.07580239 0.33353055 -0.19708622 -0.4244934
0.015160479 0.2880491 -0.5457772 0.25772813 0.16676527 -0.09096287 -0.8489868 -0.19708622
-0.45481437 0.2880491 0.2880491 0.16676527 -0.12128383 -0.90962875 0.030320957 -0.07580239
0.45481437 -0.12128383 -0.30320957 0.030320957 0.09096287 -0.3638515 0.30320957 -0.045481436
0.40933293 -0.39417243 -0.53061676 -0.31837004 0.25772813 -0.90962875 -0.45481437 -0.5457772
-0.34869102 0.46997485 0.060641915 0.34869102 0.39417243 -0.16676527 -0.30320957 -0.015160479
0.18192574 -0.10612335 -0.4244934 -0.12128383 0.40933293 -1.1218754 0.15160479 -0.34869102
0.045481436 -0.07580239 -0.07580239 0.15160479 -0.07580239 -0.90962875 -0.2122467 -0.015160479
-0.09096287 0.3638515 0.07580239 -0.5457772 0.015160479 -0.5760982 -0.2880491 0.5609377
-0.9399497 0.2728886 0.2880491 -0.5760982 -1.1218754 0.07580239 0.40933293 -0.48513532
0.3638515 -0.69738203 0.015160479 0.24256766 -1.0309125 0.37901196 -0.59125865 -0.30320957
0.15160479 0.19708622 -0.2728886 -0.24256766 -0.15160479 -0.33353055 -0.33353055 -0.39417243
-0.7731844 0.51545626 -0.060641915 0.1364443 0.0 -0.030320957 0.24256766 0.0
0.015160479 -0.30320957 0.12128383 -0.10612335 -0.81866586 0.045481436 0.2880491 -0.45481437
0.030320957 -0.6367401 -0.89446825 -0.07580239 -0.09096287 0.31837004 -0.19708622 -0.62157965
0.39417243 -0.15160479 -0.81866586 -0.18192574 -0.68222153 -0.10612335 -0.12128383 0.045481436
-0.8489868 0.30320957 -0.6367401 -0.060641915 0.2728886 0.45481437 0.34869102 0.19708622
