model_isl/keypoint_classifier/keypoint_classifier.tflite (tflite, 12040 bytes, 6 tensors)

sequential_2/dense_8/MatMul f4 [36, 20]
-0.13718455 0.116615124 0.27986953 -0.5786977 0.09006905 0.5115913 0.00015665843 0.26388156
-0.377693 0.6879356 -1.1043985 -0.07362062 0.2062711 -0.5010618 -0.2919409 0.27390784
-0.06344224 -0.50980633 -0.6279833 -0.29379222 0.07552283 -0.34916204 0.3642107 0.2256057
-0.29991764 0.37636855 -0.47451854 -0.5915571 -0.22798184 0.09172386 0.3234249 -0.014822248
0.008505878 -0.09093266 -0.24121597 -0.32497 -0.5404802 -0.70447445 -0.18803433 0.5584645
-0.39875117 -0.40101445 1.364455 0.3493025 0.08536149 -0.08413176 0.2566093 -0.031162424
-0.5976496 -0.066351734 -0.2339292 0.11698824 0.34109113 -0.48012534 -0.38398048 -0.096084654
-0.06289639 -0.330458 -0.14901803 0.43756226 0.24344333 -0.73181885 -0.8536008 -0.9091453
-0.7862083 0.5672028 -0.030651232 0.25862676 -0.34889218 -0.26211852 0.18892278 -0.9254543
0.08059423 0.16549064 -0.64381444 -0.15697213 -0.6040829 -0.62939477 -0.12880185 0.6928454
0.33306593 -0.92883843 -0.1256126 0.5903507 -0.43035668 0.494922 0.5078667 -0.47998372
-0.48699132 -0.25360313 -0.6702509 -0.18076909 -0.35125217 -0.8727602 -0.24783005 -0.35511836
-0.48111242 -0.70751727 -0.53413606 0.35483003 0.5500532 -0.51301837 -0.34472188 0.41404173
-0.45340887 -0.21017912 0.24326836 0.25811994 0.10307476 -0.047317572 -0.014419505 0.42448404
0.018743588 -0.39986914 -0.63448983 -0.22245827 -0.22436704 -0.57322407 -1.0901496 -1.0819693
-0.096857436 -0.4662367 0.21731809 0.21167041 0.36598817 0.39788336 0.1119639 -0.8218278
-0.20906232 0.57303476 0.059683423 0.40940556 0.1584876 -0.66553056 -0.44541088 -0.091522515
0.17797285 -0.6160854 -0.30465996 -0.14144793 -0.653007 -0.5904829 -0.23338687 0.0022424122
-1.2195791 -0.36639836 -0.73274463 0.24865507 -0.36823684 0.36880898 -0.1783627 0.24748197
-0.040273856 -0.06598809 0.57890743 -0.2001269 0.002694924 0.09431727 0.5712937 0.42783824
0.38233563 0.089893796 -0.5585247 -0.13485913 -0.43059903 0.032522578 0.91191816 -1.3172951
0.1402784 -0.31313 -0.34509557 -0.3081107 0.19436242 0.52612656 -0.7919243 -0.14358638
-0.6885371 0.56936496 0.1650833 -0.5536895 -0.11740943 -0.782726 -0.27665082 0.69965196
-0.44710755 0.3635216 -0.31477934 0.7127325 -1.2710567 -0.45891878 0.09222792 -0.052193064
-0.40953377 -0.95927227 -0.5159639 0.12484454 0.5488356 -0.98599607 0.5812003 -2.6103034
0.6910782 -0.57411546 -0.106102765 0.45609358 -0.2818638 -0.26368445 0.18458545 -0.4485848
-0.8951718 -0.714597 -0.1498406 -0.09510958 0.03781388 -0.55697316 -0.37990555 -0.049631275
0.9678764 -0.41108862 -0.38515422 0.026261752 -0.2190586 -2.1828294 -0.87192285 -1.8929096
-0.22123314 -0.23606777 0.67138076 0.71689665 0.6179371 -0.17654616 0.17658587 -2.2720127
-0.4243116 0.8506493 0.16361961 -1.8458115 -1.3114748 0.6327648 -1.0421327 -0.6022589
-1.44111 -0.39603722 -0.35032943 0.044958442 -0.19977565 0.6984605 -0.45305142 -0.053359434
-0.5742507 -0.09779823 0.40585557 -0.5978269 0.13237405 0.19945347 -0.30552506 0.22199064
00000000: 1b7a 0cbe e9d3 ee3d 0f4b 8f3e 8825 14bf
00000010: 1f76 b83d a6f7 023f ad44 2439 7c1b 873e
00000020: fa60 c1be 8c1c 303f ee5c 8dbf 68c6 96bd
00000030: bb38 533e 9645 00bf 4779 95be a63d 8c3e
00000040: 01ee 81bd ab82 02bf 83c3 20bf ef6b 96be
00000050: b7ab 9a3d 5ec5 b2be d379 ba3e 2e05 673e
00000060: ce8e 99be 61b3 c03e 18f4 f2be 4970 17bf
00000070: 1274 69be b8d9 bb3d f397 a53e 04d9 72bc
00000080: 3d5c 0b3c e73a babd 5201 77be 7862 a6be
00000090: e95c 0abf 7058 34bf 128c 40be 88f7 0e3f
000000a0: 1d29 ccbe c451 cdbe 76a6 ae3f c7d7 b23e
000000b0: 01d2 ae3d 464d acbd 4b62 833e 5748 ffbc
000000c0: 90ff 18bf 6be3 87bd 238b 6fbe 8897 ef3d
000000d0: 7fa3 ae3e fdd2 f5be 1799 c4be 08c8 c4bd
000000e0: d3cf 80bd ca31 a9be 2f98 18be 2908 e03e
000000f0: 3549 793e 7b58 3bbf 9585 5abf bfbd 68bf
00000100: f244 49bf 3434 113f 4b18 fbbc ba6a 843e
00000110: ffa1 b2be 6634 86be f974 413e 93ea 6cbf
00000120: 960e a53d 6176 293e 06d1 24bf 4dbd 20be
00000130: 2da5 1abf 0420 21bf a2e4 03be 515e 313f
00000140: 9e87 aa3e 5bc8 6dbf 97a0 00be 3921 173f
00000150: b657 dcbe 6b66 fd3e 8d03 023f 6dc0 f5be
00000160: ed56 f9be 45d8 81be 9095 2bbf 881b 39be
00000170: 53d7 b3be 366d 5fbf 29c7 7dbe 13d2 b5be
00000180: 5e54 f6be da1f 35bf 24bd 08bf 48ac b53e
00000190: 49d0 0c3f 2c55 03bf 637f b0be 47fd d33e
000001a0: 3525 e8be 3239 57be 571b 793e 4c28 843e
000001b0: dc18 d33d 12d0 41bd ca3f 6cbc f955 d93e
000001c0: 278c 993c a6bb ccbe ed6d 22bf 1acc 63be
000001d0: 79c0 65be d0be 12bf 068a 8bbf f87d 8abf
000001e0: 315d c6bd 94b6 eebe a288 5e3e 21c0 583e
000001f0: cd62 bb3e 5eb7 cb3e 544d e53d 4f63 52bf
00000200: 6f14 56be 68b2 123f 9b76 743d 9b9d d13e
00000210: 934a 223e 3660 2abf e50c e4be 2870 bbbd
00000220: 843e 363e c6b7 1dbf 64fc 9bbe bad7 10be
00000230: 772b 27bf e329 17bf f8fc 6ebe 6ff5 123b
00000240: 2b1b 9cbf 9198 bbbe 2795 3bbf 6f9f 7e3e
00000250: 8a89 bcbe 88d4 bc3e b6a4 36be ea6b 7d3e
00000260: 33f6 24bd c424 87bd 4733 143f 11ee 4cbe
00000270: 529d 303b 6a29 c13d 4e40 123f 9d0d db3e
00000280: 7fc1 c33e 3d1a b83d 7afb 0ebf 8318 0abe
00000290: 7a77 dcbe 6536 053d 7873 693f 209d a8bf
000002a0: 24a5 0f3e 9352 a0be 5eb0 b0be b0c0 9dbe
000002b0: f106 473e 3bb0 063f 8dbb 4abf 4f08 13be
000002c0: f843 30bf e7c1 113f 990b 293e 98be 0dbf
000002d0: 5b74 f0bd bb60 48bf 2da5 8dbe 641c 333f
000002e0: 48eb e4be 811f ba3e c22a a1be a375 363f
000002f0: fcb1 a2bf 67f7 eabe fee1 bc3d 65c8 55bd
00000300: 69ae d1be de92 75bf 3616 04bf 7fae ff3d
00000310: 7d80 0c3f 3d6a 7cbf 8bc9 143f 360f 27c0
00000320: 80ea 303f 3bf9 12bf 684c d9bd 1985 e93e
00000330: 7450 90be a601 87be f803 3d3e e8ac e5be
00000340: fb29 65bf d4ef 36bf d06f 19be d0c8 c2bd
00000350: bae2 1a3d cb95 0ebf fb82 c2be 2a4a 4bbd
00000360: bfc6 773f 357a d2be ef32 c5be e322 d73c
00000370: e650 60be 7ab3 0bc0 5636 5fbf dd4a f2bf
00000380: f18a 62be c0bb 71be 9cdf 2b3f 8a86 373f
00000390: 2031 1e3f 84c8 34be edd2 343e a868 11c0
000003a0: 5f3f d9be 27c4 593f e68b 273e 8d43 ecbf
000003b0: 68de a7bf e0fc 213f 9b64 85bf a42d 1abf
000003c0: 4b76 b8bf 64c5 cabe 615e b3be 5826 383d
000003d0: fd91 4cbe 4fce 323f 5bf6 e7be 6c8f 5abd
000003e0: 1802 13bf 704a c8bd 4dcc cf3e 2f0b 19bf
000003f0: 108d 073e 883d 4c3e c86d 9cbe 8451 633e

sequential_2/dense_7/MatMul f4 [20, 40]
0.38769883 0.1825977 0.68797565 -0.090109766 0.986479 0.9091063 0.5474576 0.7551943
0.9236418 -0.7340276 -0.04373088 -0.11385736 0.4346169 0.42452192 0.15183301 0.5433776
0.08102248 0.80903536 0.0604672 0.8955166 0.7169331 -0.06221183 0.47958955 0.06936903
0.49509826 1.213777 -0.2653558 0.20968504 0.06029118 0.24169706 1.092717 1.4975876
0.38895318 0.2374502 -0.2775169 0.3088008 0.390358 1.3680825 0.54264295 0.2499647
-0.14821312 0.058008656 -0.4930646 0.634443 0.5182046 -1.0363208 0.6166484 -0.32315573
-0.24440864 0.35949683 -0.28968242 -0.8078409 -0.45916313 1.3840756 0.22067653 0.7241066
-0.83603346 -0.5433016 1.0700915 0.39979577 -1.8563589 -1.5603802 0.35282883 -1.1784182
0.22411002 0.3159796 1.2519938 0.3685017 -1.4919169 -0.76008147 0.81481695 -1.8706349
0.32990998 -0.34408852 -0.6636507 -0.18654002 0.4686055 0.7158728 -0.70067436 -1.8151569
-2.1920307 0.19196191 0.5493695 0.4998749 0.090131536 0.60773104 0.69308347 0.12784027
0.09587949 -0.24343744 0.5870533 -1.36287 0.0062369136 1.0934392 -0.5732883 -0.3103478
0.8154869 0.16564372 0.7012067 0.5551847 0.6419736 0.49496824 0.7258947 0.43141153
0.045347374 0.96446663 0.3892237 0.41161674 -0.12339308 -0.56551147 0.47334626 -0.15804611
0.01999157 0.64928794 0.809612 -1.4170821 0.32579815 0.2990167 -0.14367144 -0.1716235
0.70086205 0.16281076 0.67459035 0.16023588 0.69095093 0.8923967 -0.7364458 -0.017709427
-0.0803904 0.0035608737 0.13345473 -0.0893435 0.09779795 -1.3879626 0.1150853 0.7566017
-0.002303754 0.34943858 0.47647727 -0.02110231 0.6110264 -0.04094933 0.172027 -1.302782
1.3007133 0.062681094 0.39772677 0.26240772 0.4600806 0.37279525 -0.12800707 0.32556352
0.7889233 0.11645188 0.27015406 0.6925634 -0.020416474 -0.77279145 0.75533694 0.32798618
0.09469814 0.20082226 0.2541645 0.7278046 0.5965515 -0.844501 1.1577426 -2.5130458
-2.0436301 0.30970332 0.27747884 0.1685074 -0.4242145 0.11150609 0.058590207 -0.4622896
0.023567168 -0.88048214 1.4222138 -0.19619432 -0.08739114 -0.37082765 -0.90181994 0.3220087
0.05752184 0.45574793 0.43068212 0.5526798 0.07259473 -0.7156456 -0.20021759 -0.5885559
0.40062696 -0.25802317 -0.19360691 0.08464418 -0.18961816 0.006574732 0.46380797 -0.10481045
0.11711721 0.61245596 -0.34860638 -0.030767685 -0.61980563 1.331438 -1.813625 1.161184
1.1070027 0.86153156 -0.0069256416 1.2104689 1.0575465 -0.11667116 0.23819959 0.7167581
-0.11137851 0.55651724 0.08248318 0.3459267 0.5342802 0.4390196 -0.3402729 0.05200119
-0.042478535 0.0020048853 0.1757698 0.13037778 0.21229687 0.85006946 -0.36011872 0.99154663
-0.26867133 0.22020902 0.3593903 0.08722941 -0.065256596 -0.21218343 0.9068738 1.0696473
0.10880713 0.35764456 0.6498808 -0.33949512 0.551046 -0.051460095 0.69635546 0.14468485
-0.024649715 0.58967453 0.30837467 0.3860979 0.29992145 -1.771589 0.6344462 0.24363333
00000000: 7680 c63e e4fa 3a3e 2c1f 303f 788b b8bd
00000010: e389 7c3f 31bb 683f 2e26 0c3f 6a54 413f
00000020: ca73 6c3f 3ce9 3bbf 271f 33bd 0c2e e9bd
00000030: 1b86 de3e f05a d93e 1d7a 1b3e cb1a 0b3f
00000040: 1def a53d f11c 4f3f 74ac 773d 9340 653f
00000050: ed88 373f d5d1 7ebd c38c f53e 5a11 8e3d
00000060: 857d fd3e 0b5d 9b3f b7dc 87be adb7 563e
00000070: e2f3 763d 6f7f 773e 27de 8b3f f3b0 bf3f
00000080: df24 c73e 2526 733e b216 8ebe 231b 9e3e
00000090: 01dd c73e 541d af3f a6ea 0a3f bff6 7f3e
000000a0: 2ec5 17be 7c9a 6d3d f772 fcbe db6a 223f
000000b0: 0fa9 043f 29a6 84bf abdc 1d3f ab74 a5be
000000c0: 4246 7abe f80f b83e 4151 94be a9ce 4ebf
000000d0: 6e17 ebbe 6429 b13f 07f9 613e 0d5f 393f
000000e0: 4a06 56bf d015 0bbf c2f8 883f 08b2 cc3e
000000f0: 2b9d edbf 8aba c7bf fba5 b43e 68d6 96bf
00000100: 197d 653e 14c8 a13e 5541 a03f 41ac bc3e
00000110: 22f7 bebf b394 42bf d897 503f f770 efbf
00000120: f6e9 a83e 5f2c b0be 03e5 29bf 5904 3fbe
00000130: 0fed ef3e 7143 373f 655f 33bf 1057 e8bf
00000140: 3b4a 0cc0 aa91 443e 7ba3 0c3f 9aef ff3e
00000150: e296 b83d 4394 1b3f eb6d 313f 8fe8 023e
00000160: 775c c43d aa47 79be 2049 163f 8672 aebf
00000170: 065f cc3b d1f5 8b3f 06c3 12bf e8e5 9ebe
00000180: c0c3 503f 829e 293e 4882 333f 9620 0e3f
00000190: 6258 243f 7a6c fd3e 3cd4 393f f9e1 dc3e
000001a0: 2bbe 393d 49e7 763f 5448 c73e 6ebf d23e
000001b0: 83b5 fcbd 5cc5 10bf 715a f23e d7d6 21be
000001c0: 5cc5 a33c bc37 263f bb42 4f3f f262 b5bf
000001d0: 04cf a63e b818 993e 9b1e 13be 12be 2fbe
000001e0: b26b 333f ddb7 263e f4b1 2c3f e014 243e
000001f0: 29e2 303f 1c74 643f b687 3cbf 5c13 91bc
00000200: b9a3 a4bd 8c5d 693b 5ba8 083e baf9 b6bd
00000210: 4b4a c83d c2a8 b1bf d7b1 eb3d a6b0 413f
00000220: 94fa 16bb 9de9 b23e d4f4 f33e c0de acbc
00000230: 3a6c 1c3f 7cba 27bd d927 303e 90c1 a6bf
00000240: c67d a63f f25e 803d d8a2 cb3e 4e5a 863e
00000250: af8f eb3e 05df be3e 4914 03be 43b0 a63e
00000260: e1f6 493f 537e ee3d a251 8a3e d64b 313f
00000270: 7340 a7bc a9d5 45bf c35d 413f ceed a73e
00000280: 19f1 c13d 5aa4 4d3e d921 823e 6751 3a3f
00000290: 99b7 183f 3831 58bf e930 943f bed5 20c0
000002a0: d6ca 02c0 6f91 9e3e b511 8e3e 348d 2c3e
000002b0: a532 d9be 4e5d e43d 49fc 6f3d 39b1 ecbe
000002c0: ef0f c13c 4767 61bf 1a0b b63f 2ae7 48be
000002d0: 20fa b2bd 1fdd bdbe acdd 66bf 53de a43e
000002e0: 059c 6b3d cb57 e93e 5e82 dc3e 6c7c 0d3f
000002f0: 8cac 943d 8d34 37bf d705 4dbe 99ab 16bf
00000300: fa1e cd3e 9d1b 84be e440 46be ee59 ad3d
00000310: 432b 42be d970 d73b 3d78 ed3e dca6 d6bd
00000320: 26db ef3d eac9 1c3f 897c b2be 830c fcbc
00000330: 95ab 1ebf 8f6c aa3f dd24 e8bf ada1 943f
00000340: 44b2 8d3f 558d 5c3f 7ef0 e2bb a5f0 9a3f
00000350: af5d 873f 4af1 eebd 98ea 733e 757d 373f
00000360: 6b1a e4bd ea77 0e3f f1ec a83d 4e1d b13e
00000370: 96c6 083f 2dc7 e03e 4038 aebe 33ff 543d
00000380: f9fd 2dbd 6564 033b 00fd 333e c181 053e
00000390: 5a64 593e 279e 593f 7b61 b8be 00d6 7d3f
000003a0: 4a8f 89be 797e 613e 0102 b83e 55a5 b23d
000003b0: 40a5 85bd 9d46 59be e228 683f 34ea 883f
000003c0: 46d6 de3d 301d b73e 975e 263f 4ed2 adbe
000003d0: 5a11 0d3f d2c7 52bd 5a44 323f 4428 143e
000003e0: 33ee c9bc e9f4 163f 49e3 9d3e a0ae c53e
000003f0: 4e8f 993e 6ec3 e2bf 116b 223f 047b 793e

sequential_2/dense_8/BiasAdd/ReadVariableOp f4 [36]
-1.5816225 -1.5710279 -0.4499733 0.10235171 -0.31550047 0.2927547 -1.5595336 -0.16344357
0.86536926 1.886367 -1.1474186 1.136397 -0.100129776 -0.600367 -0.8402714 1.3663954
-0.46419108 0.12814301 -1.2634361 -0.36054903 0.4877025 0.10579535 0.2061999 0.11687892
1.0933601 -1.7119002 -3.3473449 1.4421159 0.48673233 1.0423402 0.5293657 -0.41178474
0.7391822 1.6176267 -0.11311603 0.13329268
00000000: 9b72 cabf 7117 c9bf e662 e6be c69d d13d
00000010: 4789 a1be f2e3 953e cc9e c7bf c05d 27be
00000020: d788 5d3f 7974 f13f 9dde 92bf 7575 913f
00000030: d710 cdbd a7b1 19bf 071c 57bf 0be6 ae3f
00000040: 74aa edbe ec37 033e 46b8 a1bf e299 b8be
00000050: 24b4 f93e 3cab d83d 1126 533e 375e ef3d
00000060: 39f3 8b3f 8c1f dbbf e63a 56c0 4197 b83f
00000070: fb34 f93e 676b 853f 8384 073f 73d5 d2be
00000080: 0b3b 3d3f 640e cf3f 61a9 e7bd e07d 083e

sequential_2/dense_7/BiasAdd/ReadVariableOp f4 [20]
-0.008795801 -0.8554402 -1.5521904 0.8766091 1.8427417 -0.0087394975 1.4291124 3.1666453
0.7589744 -0.8034961 1.5648142 -0.046026647 0.032026503 2.5716603 1.3548466 0.98715883
0.8351201 2.7319727 1.350657 -1.0084918
00000000: 431c 10bc 21fe 5abf 2dae c6bf 7469 603f
00000010: f6de eb3f 1c30 0fbc 28ed b63f 51aa 4a40
00000020: 254c 423f ecb1 4dbf d54b c83f 7086 3cbd
00000030: 392e 033d 1596 2440 9d6b ad3f 71b6 7c3f
00000040: 6eca 553f a4d8 2e40 54e2 ac3f 4216 81bf

sequential_2/dense_6/BiasAdd/ReadVariableOp f4 [40]
-1.1560148 -0.43306103 0.18564166 -0.5170934 0.32714614 -0.98165184 0.62685186 -0.85536367
-0.3856869 -1.9814253 -0.07160747 -1.3477842 -0.6223544 -1.3399938 -0.47278464 -1.2374167
-1.0830148 -1.0304168 -0.28698593 -0.11520579 -0.024362836 -1.7169225 -0.045615938 -1.5418011
-0.16497184 -0.61585444 -0.6190088 -1.3202518 -0.32632703 -0.90398407 -1.2071794 -1.4946581
-0.27747285 -0.3680943 -1.1287323 -1.2480501 -0.27981588 -0.6511339 -0.9443737 -0.42214644
00000000: 4bf8 93bf 2dba ddbe d918 3e3e 3c60 04bf
00000010: b37f a73e 894d 7bbf 5d79 203f 1df9 5abf
00000020: c178 c5be 589f fdbf f0a6 92bd 3184 acbf
00000030: 9e52 1fbf eb84 abbf d410 f2be ac63 9ebf
00000040: 3ba0 8abf b3e4 83bf d2ef 92be 03f1 ebbd
00000050: 9294 c7bc 1ec4 dbbf c7d7 3abd bd59 c5bf
00000060: 61ee 28be a3a8 1dbf 5c77 1ebf 03fe a8bf
00000070: 5614 a7be 806b 67bf db84 9abf f550 bfbf
00000080: ec10 8ebe db76 bcbe 4d7a 90bf 1bc0 9fbf
00000090: 0744 8fbe b6b0 26bf 7ac2 71bf 9423 d8be

sequential_2/dense_6/MatMul i1 [40, 84] scale=0.0320654 zero_point=0
0.0320654 0.0961962 0.0320654 -0.480981 0.0641308 -0.4489156 0.0961962 -0.32065398
0.2565232 -0.1923924 0.1282616 -0.2244578 0.1923924 -0.32065398 0.1282616 -0.1923924
0.0320654 -0.1923924 0.16032699 -0.0641308 0.0961962 -0.6733734 0.1923924 -0.961962
0.2565232 -0.80163497 0.32065398 -0.0320654 0.2244578 -0.86576575 0.3527194 -1.2826159
0.480981 -0.7695696 0.60924256 -0.2565232 0.28858858 -0.7375042 0.5130464 -0.83370036
0.7054388 -0.5130464 0.0961962 0.0641308 0.7054388 -0.0961962 0.3847848 0.3847848
0.32065398 0.16032699 0.28858858 -0.0641308 -0.0961962 0.3847848 0.1282616 0.2565232
0.2565232 0.4489156 0.28858858 0.5451118 -0.3847848 0.28858858 0.2565232 -0.1282616
0.32065398 -0.0641308 0.2565232 0.16032699 -0.83370036 0.2565232 0.1923924 -0.2244578
-0.0320654 -0.16032699 -0.41685018 0.41685018 -1.1864197 0.0641308 0.28858858 -0.16032699
0.0 0.0320654 -0.6733734 0.41685018 0.16032699 0.0320654 -0.86576575 -1.3146814
-0.1282616 -1.0902236 0.0641308 -0.9298966 0.1282616 -0.8978312 -0.28858858 0.3527194
0.0 0.1282616 0.0320654 -0.0641308 0.0320654 -0.0320654 -0.32065398 0.5451118
-0.0641308 -0.1282616 0.0320654 -0.86576575 0.0961962 -0.86576575 -0.1923924 0.7054388
0.0 0.0961962 0.0641308 -0.3527194 0.0 0.1282616 -0.16032699 0.83370036
-0.0320654 0.1923924 -0.16032699 0.0 -0.16032699 0.1282616 -0.0320654 -0.2244578
0.2244578 -1.7315315 0.1282616 -1.923924 -0.0961962 -1.6674007 -0.1923924 0.0320654
0.16032699 0.1282616 0.0961962 0.0641308 0.16032699 0.0320654 0.1282616 0.0
-0.2565232 0.0961962 0.0641308 0.0641308 0.0641308 0.0320654 -0.0961962 0.0
-0.64130795 0.16032699 -0.16032699 0.0961962 -0.1923924 0.0961962 -0.2565232 0.0320654
-0.3527194 0.2244578 -0.0961962 0.16032699 -0.16032699 0.0961962 -0.2244578 0.0961962
-0.1923924 -0.0320654 -0.0320654 -0.5130464 -0.1923924 -0.0961962 -0.1282616 0.0961962
-0.0641308 0.16032699 -0.2244578 0.28858858 -0.0320654 -0.1923924 0.0320654 -0.32065398
0.0320654 -0.28858858 -0.1923924 0.3847848 -0.0320654 -0.1282616 0.0320654 0.16032699
0.0641308 0.7054388 -0.1282616 0.480981 0.0 0.5451118 0.0320654 0.7054388
0.0 1.0902236 -0.1923924 0.4489156 0.0 0.2565232 -0.0641308 0.32065398
-0.1282616 0.41685018 -0.0641308 0.0320654 0.16032699 1.0260928 0.0320654 1.923924
0.0 2.2125125 -0.2565232 2.340774 -0.16032699 1.2184851 -0.1923924 0.2565232
-0.0961962 -0.2565232 -0.0641308 -0.32065398 -0.0961962 0.7054388 -0.1923924 1.0260928
0.0 1.1543543 0.0641308 0.57717717 -0.1923924 0.41685018 -0.0641308 0.60924256
0.0641308 0.4489156 0.41685018 -0.5451118 0.1923924 0.2244578 0.1282616 0.16032699
0.3847848 -0.32065398 0.32065398 -1.0581582 -0.0961962 -0.16032699 -2.0201201 -0.7375042
00000000: 0103 01f1 02f2 03f6 08fa 04f9 06f6 04fa
00000010: 01fa 05fe 03eb 06e2 08e7 0aff 07e5 0bd8
00000020: 0fe8 13f8 09e9 10e6 16f0 0302 16fd 0c0c
00000030: 0a05 09fe fd0c 0408 080e 0911 f409 08fc
00000040: 0afe 0805 e608 06f9 fffb f30d db02 09fb
00000050: 0001 eb0d 0501 e5d7 fcde 02e3 04e4 f70b
00000060: 0004 01fe 01ff f611 fefc 01e5 03e5 fa16
00000070: 0003 02f5 0004 fb1a ff06 fb00 fb04 fff9
00000080: 07ca 04c4 fdcc fa01 0504 0302 0501 0400
00000090: f803 0202 0201 fd00 ec05 fb03 fa03 f801
000000a0: f507 fd05 fb03 f903 faff fff0 fafd fc03
000000b0: fe05 f909 fffa 01f6 01f7 fa0c fffc 0105
000000c0: 0216 fc0f 0011 0116 0022 fa0e 0008 fe0a
000000d0: fc0d fe01 0520 013c 0045 f849 fb26 fa08
000000e0: fdf8 fef6 fd16 fa20 0024 0212 fa0d fe13
000000f0: 020e 0def 0607 0405 0cf6 0adf fdfb c1e9
