model/keypoint_classifier/keypoint_classifier.tflite (tflite, 7980 bytes, 6 tensors)

sequential_1/dense_5/BiasAdd/ReadVariableOp f4 [36]
00000000: d0cb dfbe 181f 613e 4282 f7be c610 983f
00000010: 3cc2 01bf b673 be3e 5eae 8abe 4110 a8be
00000020: aceb df3e 971c 3dbf dd94 493e 8778 103f
00000030: b24b 95bf aebd 56be a4d2 33bf 3924 41be
00000040: 99f8 0ebf 1746 923e 2bea 42bf 061e 41bf
00000050: f4dc 1c3f 37be 083f ef6a d3be 850b 4abe
00000060: 8360 81bf 2d4f 803f cb10 4fbe e90e 713f
00000070: 2312 cf3e 99c0 b33d 3be5 c4be 3c57 07bf
00000080: f3a9 84be d600 303f 2a9a cfbc 5e5d 2c3e
-0.43710184 0.21984518 -0.48341566 1.1880119 -0.50687003 0.37197655 -0.27086157 -0.328249
0.4373449 -0.7387175 0.19685693 0.5643391 -1.1663725 -0.20970795 -0.7024329 -0.18861474
-0.5584808 0.285691 -0.7613856 -0.7543644 0.6127465 0.53415245 -0.4129252 -0.19730957
-1.0107578 1.0024163 -0.2022125 0.94163376 0.40443525 0.087769695 -0.3845614 -0.52867484
-0.2591091 0.68751276 -0.025342066 0.16832492

sequential_1/dense_4/BiasAdd/ReadVariableOp f4 [10]
00000000: cb0c 623d 1e3a 8b3f 856c af3f c40a 563f
00000010: 65bc ac3f b77f 7f3e b775 c5be 8fee 1bbf
00000020: 055a 983f 4fdc 933f
0.05518798 1.0877111 1.3704993 0.8361018 1.3494993 0.24951063 -0.38566372 -0.60910887
1.1902472 1.1551608

sequential_1/dense_3/BiasAdd/ReadVariableOp f4 [20]
00000000: 3ebc f83b 431c 4cbf 82b2 d5be a119 43bf
00000010: b36d 203f caf8 303e 11d5 a23c 5981 ecbd
00000020: 0153 6f3e 5f97 1b3f d742 41bf 4ee5 f3be
00000030: 6057 40be 882b 3bbf b71c dfbd 1750 58bd
00000040: 2119 f6bc e052 f0be f6cd 78be 34b4 11bb
0.0075907996 -0.79730624 -0.41737753 -0.7621098 0.6266739 0.17282405 0.019876989 -0.115481086
0.23371507 0.6077785 -0.75492615 -0.47635883 -0.18783331 -0.731133 -0.10894149 -0.052810755
-0.03004128 -0.4693823 -0.24297318 -0.0022232654

sequential_1/dense_3/MatMul f4 [20, 42]
00000000: bbc2 48be 4270 273e 61dd 8dbd 5633 15bf
00000010: c9d3 33be 7689 04be cbab 323f e1c9 0ebb
00000020: 4567 b53f e37f 09be 1ca8 c53e 9daa 61bb
00000030: 093b 833e eecb 823c cab7 44be f50e 1ebb
00000040: dcf0 98be 86d8 6a3d af62 0f3f 9bc6 cc3c
00000050: 6750 46bf ad4f 2c3d e9f8 c5bf e91e cebc
00000060: 0288 a7bf b114 edbc 8199 913e 0b1d 4f3d
00000070: 4c61 a1be fee7 ca3d 689a e7be fb8e 443e
00000080: dd83 263e 1236 1d3e 3cd2 153e 1740 ee3d
00000090: ab16 bdbd 2751 493e 426b 25bf c56f 7c3e
000000a0: df62 1fbf afb3 7f3e 2c46 8d3e 4083 113c
000000b0: 9921 0f3f 6b1f 55be b55d 0b3f 4ce1 0ebe
000000c0: aaf8 b83f f647 21be a334 0740 0d51 bbbd
000000d0: 65ab 883e ff76 43bc da6d 03be d6d5 a43a
000000e0: f4c3 b8bd 6ef1 993d 46e8 03bd 644a c13d
000000f0: 15ac 813e 889a 0bbd 3e04 d4bd 66f9 893b
00000100: c7cd d93c 2c77 28ba 94ac aabd a49b 043d
00000110: 94f2 a53d 9174 b53b 7449 83bc d6dd 0bbd
00000120: ce67 7abe c5ec 32bd fe28 11bf 3210 2dbd
00000130: 8580 92be b285 e43b 66ac 2abe 07d0 95bc
00000140: 0b67 9cbe 6d2c 4dbd cf78 5ebe 7062 2db8
00000150: d066 cb3d f054 203e 1631 8cbe 7f5a 393f
00000160: 6b41 02be 3bae 313e 3bbf aebc 895c df3d
00000170: f78a 273e b9a8 8b3d 36ba 63be 074d ee3d
00000180: 6f90 b33d 3c77 b93d 100d ad3e 7991 913d
00000190: f2c2 033f c38c 393d 9a0c 993d 155f a43d
000001a0: ea49 823e a274 6e3d aff0 f23e ef03 76bc
000001b0: 90f4 e03e 7a47 88bd 2508 643e 762a 5d3d
000001c0: 1999 623d 3d15 ae3d a98d 82be fdd9 713d
000001d0: e9ff bebe d379 733e 2032 523e 41e5 6f3d
000001e0: 8efb 11be b9ad 6c3d 965d 91bf ce4a 39be
000001f0: 9960 f2bf 5c77 22bf acaf 90bd ccb7 ef3d
00000200: 8cbb a03e 6c5b 84be 84cc 9dbd ff06 d5be
00000210: 5c80 70bf dbe9 93be 593e b9bf 14b0 73be
00000220: 1847 293f b8e2 fdbd 544b e33e b17b 75bd
00000230: af77 973e 71d2 053d 3040 7e3e dde3 903d
00000240: 9e71 0c3e b5e6 4dbd 1415 87bd b2c2 d73a
00000250: ea12 3c3f 571f 2b3e 2cd7 823f 1d66 c53d
00000260: ab65 e9be e9e5 3bbd b03e c9be c887 39bb
00000270: bf26 c03d 3666 2c3e 60fd efbd ac85 123e
00000280: 83e2 debe d805 e1b9 1117 09bf 9133 18bd
00000290: 4740 47bf c281 7bbd b3d5 95bf 95f2 3ebe
000002a0: 8820 45bd cc51 323e db0a 983e 434a 94bf
000002b0: 0619 a2bd fccc 04be 8321 0abf d210 8f3d
000002c0: ac10 67bf 9bda ab3d 9817 08be 38bd bd3d
000002d0: bd33 813a 0a3c 843d 7885 8a3e 2711 a6bb
000002e0: c5f9 003f fef4 96bd a2c8 0cbf d47f 573d
000002f0: 2116 763e e19a f73a 63c6 8b3e fa49 dcbe
00000300: 94a4 0ebc 56b6 c1be 7881 12bf 9b33 263e
00000310: 43be 0ebe b028 e13d 1836 c93e 107f f33c
00000320: f6a1 333f b6fb 5abb 7667 85be f561 a13e
00000330: 1a5d 9a3e 7d42 473e 1ed1 823f 0a6f a83e
00000340: 3fa0 b13f b20f d83e 4ef5 213e a23d 363e
00000350: a191 943e 6569 33bf 1e3b ae3e 2af8 acbe
00000360: 26de 003f 8bff 0dbe a54d 8e3f 54fc ccbd
00000370: 00cd 3c3f 81ee 10be 5557 c6bd 5335 debd
00000380: 7c1a 25bf 620a cebd edb3 92bf 8d19 6bbe
00000390: b7cf 073e 366e bbbd 8005 79bf 0e0b c73d
000003a0: 7dfa 7abf 20c8 673e af1e 29bf 586f 233e
000003b0: d295 c0be 8062 923d 4138 e8be 191c 4a3e
000003c0: 5c43 bfbd 079e b63e 2173 0f3f ff20 b93e
000003d0: 52dc bcbe 49eb 393e 7c94 f6be 711a 7c3e
000003e0: 8907 b3bd d387 b03e 4b00 32bd a5cc ab3e
000003f0: 10da e83c 98bd b8bd 440d 64be 4e20 00bf
-0.19605534 0.16351417 -0.0692699 -0.5828146 -0.17561258 -0.12943062 0.69793385 -0.002178781
1.417214 -0.13427691 0.3860482 -0.0034433969 0.25630978 0.015966382 -0.19210735 -0.0024117802
-0.2987126 0.0573354 0.56009954 0.024997046 -0.77466434 0.042068172 -1.5466586 -0.025161223
-1.3088381 -0.02894053 0.28437427 0.050564807 -0.31519544 0.0990753 -0.4523499 0.19195168
0.1626124 0.15352657 0.1463098 0.11633318 -0.09232839 0.19659863 -0.6461679 0.24652012
-0.6226024 0.24970888 0.275926 0.00888139 0.5591064 -0.20812766 0.5443986 -0.13953131
1.4450886 -0.15750107 2.1125877 -0.091463186 0.26693264 -0.011930226 -0.12834874 0.0012575935
-0.0902175 0.07516752 -0.032203935 0.09438017 0.253266 -0.03408292 -0.10352372 0.004210639
0.02658738 -0.00064264494 -0.08333698 0.032374993 0.08102909 0.0055375774 -0.016026236 -0.034147106
-0.24453661 -0.043682832 -0.56703174 -0.042251773 -0.28613678 0.0069739455 -0.16667327 -0.018287672
-0.30547366 -0.050091196 -0.21725772 -4.133809e-05 0.09931719 0.15657401 -0.273812 0.7240371
-0.12720267 0.1735162 -0.02133142 0.109063216 0.16361605 0.06819291 -0.22239003 0.116357855
0.08767783 0.09055945 0.33799028 0.07107825 0.5146934 0.045300256 0.07473107 0.08025948
0.25447017 0.0582167 0.47449252 -0.015015586 0.43936586 -0.06654258 0.22268732 0.053995572
0.055321787 0.08500145 -0.25498703 0.05904578 -0.3730462 0.23776941 0.20526934 0.058568243
-0.14256117 0.057782862 -1.1356685 -0.18094942 -1.8935729 -0.6346338 -0.07064757 0.11704978
0.31393087 -0.25851 -0.07705024 -0.416069 -0.9394586 -0.28889355 -1.4472152 -0.23797637
0.66124105 -0.12396759 0.44393408 -0.059932414 0.295835 0.032671396 0.24829173 0.070747115
0.13715217 -0.050268847 -0.06595817 0.0016461222 0.7346636 0.16711174 1.0221915 0.09638617
-0.4558538 -0.045873556 -0.3930564 -0.0028309692 0.0938239 0.16835865 -0.11718249 0.14308804
-0.4353219 -0.00042919698 -0.5355082 -0.037158553 -0.77832454 -0.061403044 -1.1705841 -0.18647225
-0.048126727 0.17414016 0.29695782 -1.1585163 -0.07914929 -0.1296882 -0.53957385 0.0698563
-0.90259814 0.08391305 -0.1329025 0.09264606 0.0009857338 0.06456764 0.27054954 -0.0050679627
0.5038112 -0.07370947 -0.5499364 0.05261214 0.24031879 0.0018890762 0.27299795 -0.4302519
-0.008706231 -0.37834424 -0.57228804 0.16230623 -0.13939767 0.10994089 0.39299083 0.029723674
0.7016901 -0.0033414192 -0.26055497 0.31520048 0.30149156 0.19458957 1.0220068 0.32897216
1.3877028 0.42199475 0.15816233 0.17796949 0.29017356 -0.70082694 0.34029478 -0.33783084
0.5033897 -0.13867013 1.1117445 -0.10009065 0.73750305 -0.14153482 -0.09684626 -0.108500145
-0.64493537 -0.10060574 -1.1461159 -0.22958966 0.1326283 -0.091518804 -0.9727402 0.097189054
-0.98038465 0.22634935 -0.66062444 0.15960443 -0.37614304 0.07147694 -0.45355418 0.19737281
-0.0933902 0.3566744 0.5603505 0.36157987 -0.3688684 0.1815616 -0.4816016 0.24619462
-0.087416716 0.34478626 -0.04345731 0.3355457 0.028424293 -0.09020537 -0.22270685 -0.50049293

sequential_1/dense_4/MatMul f4 [10, 20]
00000000: daa5 9a3e e81b 8f3e f160 523e 6321 e53d
00000010: 1e6b ca3d c88a a5be e1bb 743e 2123 923f
00000020: 3120 d13e 29e9 27bf 3a2c 5d3f 859f 7e3f
00000030: 3f7b 5d3e b7b6 8c3e c04f a43e 7eaa 623f
00000040: 584e a0bc 02c7 6e3f e785 0b40 1be7 28be
00000050: 51d1 15bd 3dcc 383e c590 b43f 8873 823f
00000060: a105 29be 4243 d6bd 5365 b7bd e78b 173f
00000070: 7bb5 abbe 6d8a b0bf a674 4c3f 3652 a4bd
00000080: c833 21bf 9f92 e23d b902 23bf b94e 58be
00000090: 1dfb a53e defc 883e f7c2 2b3f 39af 3b3d
000000a0: b084 9f3f 4967 0f3e 63a2 8abf 668f 3b3f
000000b0: 887f b9be 6eaa 853f d73b 693f 5293 213f
000000c0: 2b06 293f de1e 3ebf 303b ad3d 4e42 28bf
000000d0: 5805 3bbe b388 0a3e 009e 2c3f dbc0 29be
000000e0: 089a 863d 9dee 2dbf 0a0f 6f3e 12fc b23e
000000f0: 9a1f 4fbe febc 58be e9ab f73e 9798 433f
00000100: 8f19 debd 02bf 47be 7e8e 953e f87e d23e
00000110: 0762 0a3e d6b1 b739 e628 503f cf79 883f
00000120: 36ff 5ebe 1712 a7bb c5f3 8b3d 4834 bb3e
00000130: dfd0 f43e 70a3 ab3f 26ac aabe fddb 6fbf
00000140: df26 0dbf 4817 d9bf 9801 64bf 60f2 db3e
00000150: 0cb9 ac3f ac89 dc3d f43d 433f 41c9 023f
00000160: b75c 313f 85e2 1a3f 5639 6d3e ff9a 213e
00000170: ee8e 02bf f320 adbf a0e6 97bd 95a2 b93e
00000180: 154b 803e cf75 5f3d 2ab0 233f 2a09 ce3c
00000190: d6c4 85bd dbab 9a3f 4f03 6ebe 2f1a 9f3e
000001a0: 5b26 3a3f 8343 aa3b cd2e dd3e 214b fcbd
000001b0: d9f6 683e a94d 26be 19b5 173f cb68 0cbe
000001c0: 822b b73f 4139 983f a3e2 cd3d 0b94 bb3f
000001d0: 8dfb bb3f bbe5 cd3e e868 ebbe fb71 c93f
000001e0: cf96 143f 5868 1a3f 5d9b 6cbd a240 04bf
000001f0: 3ff0 183f 1f1c c93e b697 483d a519 153f
00000200: 457e 2d3e 8e9f 843e 3ae4 1cbf 2014 9b3f
00000210: cfdd 6b3e 9561 143f bb9e 473e d333 2a3f
00000220: b39b c43e c6d5 b3be 94d0 713f b715 173f
00000230: 4832 913f 1eb6 303f f53e dd3f 242d 8b3f
00000240: 330b 20bf 00b8 6b3f 6fbf d1bc 329d 943c
00000250: e192 9b3f 3f76 493f 3a38 223f 5c95 b73d
00000260: 3c6d 18be 485b 333f 8fcb 5a3f f6c2 25bf
00000270: 05ba a2be 0094 af3e 7406 41be e341 ebbd
00000280: 415f 0e3f 3483 303f d926 8d3d b019 84be
00000290: 1df9 40bd 3c9e ab3e 78ea 1b3f 1be7 8c3f
000002a0: edbd 92bf 4d2e 4dbf d64d b73e 4788 883f
000002b0: 3f6e 19bf 80b4 513f f1bf 13bf 0aed 92bf
000002c0: 529f 0bbf c2d9 433f 9a05 0b3f 14ce a6be
000002d0: e79b cd3d 17e8 b63f e8e4 07be 4aac 21bd
000002e0: a570 c5be 1d4a 093e 68df af3e 6dc3 16be
000002f0: 95ec 923e dbad c7bf d06f 113f f8f4 503e
00000300: 595c 75be 5e0f bd3f 5a21 5c3e 5816 a63d
00000310: c98f bd3e d371 1e3f a5b9 aabe 8764 023f
0.3020466 0.27950978 0.20544793 0.11188009 0.09883712 -0.32332444 0.23899795 1.141697
0.40844873 -0.6559015 0.8639561 0.9946216 0.21629046 0.2748315 0.32092094 0.885414
-0.019568607 0.9327241 2.1800478 -0.1649441 -0.036576573 0.1804666 1.410668 1.0191507
-0.16506054 -0.10462047 -0.08954873 0.5919785 -0.33536896 -1.3792244 0.7986549 -0.08023493
-0.62969637 0.11063122 -0.6367603 -0.2112378 0.32418147 0.26755422 0.6709437 0.045821402
1.2462368 0.14004244 -1.0830806 0.73265684 -0.3623011 1.0442636 0.91106933 0.6311542
0.66025037 -0.7426585 0.08458555 -0.6572617 -0.18263757 0.13528709 0.6742859 -0.16577475
0.06572348 -0.6794222 0.2334558 0.3495794 -0.20226899 -0.21165845 0.48373345 0.7640471
-0.10844719 -0.19506457 0.29210275 0.41112494 0.13513957 0.00035036978 0.81312406 1.0662173
-0.21777043 -0.005098592 0.06833605 0.36563325 0.47815606 1.3409252 -0.33334464 -0.9369505
-0.5513744 -1.696023 -0.8906493 0.42958355 1.3493972 0.10768446 0.7626641 0.5108834
0.69282097 0.6050189 0.23166403 0.15781783 -0.50999343 -1.352568 -0.07417035 0.36256853
0.25057283 0.05455571 0.6394068 0.025150854 -0.06531684 1.2083696 -0.2324345 0.31074664
0.72714776 0.0051960363 0.4319977 -0.12319017 0.22750415 -0.16240562 0.5926071 -0.1371185
1.4310153 1.1892473 0.10052993 1.4654554 1.4686142 0.40214333 -0.45978475 1.5737909
0.58042616 0.60315466 -0.057765353 -0.5166112 0.59741586 0.39279267 0.048972808 0.58242255
0.16942699 0.2590298 -0.61285746 1.2115517 0.23033832 0.579614 0.19494145 0.6648533
0.3840004 -0.35124034 0.9445889 0.5901751 1.134347 0.6902789 1.7284838 1.0873151
-0.6251709 0.92077637 -0.025603978 0.018141363 1.2154199 0.78696054 0.63367045 0.08964035
-0.1488542 0.7006116 0.85466856 -0.6475061 -0.31782547 0.34292603 -0.18850118 -0.11487176
0.55614096 0.689502 0.06892175 -0.25800848 -0.047112573 0.3351916 0.60904646 1.1008028
-1.1464211 -0.80148774 0.35801572 1.0666589 -0.5993385 0.81916046 -0.57714754 -1.1478589
-0.5453998 0.7650415 0.5430542 -0.325791 0.10039502 1.4289578 -0.13270915 -0.03947095
-0.38562503 0.13407178 0.34350133 -0.14722987 0.28696123 -1.5599931 0.5681124 0.20405948
-0.23961009 1.4770315 0.21497098 0.081097305 0.37023762 0.6189243 -0.3334476 0.5093464

sequential_1/dense_5/MatMul f4 [36, 10]
00000000: 65be 4c3e 077d 66bf cb50 2fbe 283d afbc
00000010: a541 923b 06ed 0b3f ac7e 15bf f54a b03b
00000020: c8cb 15bf 68f2 0d3f 4695 f13e 4102 bf3d
00000030: dc76 42bf a9b3 243f 2a36 2f3c 1e8b f0bd
00000040: 5235 0ebe ab34 40bf 291a 8dbe d5e0 5fbe
00000050: 48e3 61be f0e9 f7be 0d68 a0bf 7300 81bd
00000060: 170e 14be c087 e33e c4a8 1d3f 05fb 20bf
00000070: 671a 69be bcb1 213e 1814 20bf c276 1a3e
00000080: 7c1f 6dbe dd1f 6b3e cda7 a0be c3ce 30be
00000090: 15e6 35bf 774f 69bf 3915 a43e 984b 013f
000000a0: 46d7 18be 218e d03e 4bee d6be c716 483e
000000b0: 0033 18bf f0d2 353e 54db 97be 4201 c2be
000000c0: c531 703d c0e6 e33d 415a 333f 589e bf3b
000000d0: 1d9c 5fbf 5a32 af3d 9cc9 5fbf b77c f93d
000000e0: 8e5d 733d c6c7 4cbf 78de 8c3c a270 2f3e
000000f0: 9254 b0be 0e59 00bf 320c be3e 5313 77be
00000100: 207f 57bd a5ca 053f 3ec5 c33d 00ea d73e
00000110: 6c13 81be 835d a8bf bc6d a93d dd04 84bf
00000120: 714a 0f3f 145d 31bf bc14 533e edd3 9bbe
00000130: 063b b43e 99a4 3d3e 257f 94be d1df bdbf
00000140: 74d9 54bf 9611 f93e fe13 17bf e61a e43e
00000150: b1f6 61bf 21c6 803e 7119 20bf b669 7b3d
00000160: 870e 8bbe b97f 723e e437 d8be f424 903e
00000170: 4553 373d 790e 973c bfb7 25bf a491 08bf
00000180: aeab f7be 34b7 393f 637a 82be 4fed a0be
00000190: 44c1 02be 34a6 0f3d f742 ab3e eeca 60bf
000001a0: a6cb 643e cf0c 0bbe 8dcc 483e 913e 7ebf
000001b0: 1656 633e 0644 72be bbe4 4ebf e64d 59bf
000001c0: f68d d53c 5d8d 36bd a702 88be 3d2b 193c
000001d0: 8bd2 893e 2862 b2bd 2997 253e 8c7b be3e
000001e0: 4b38 5d3c ebad f4be 8612 56bf 929c 333d
000001f0: eb5e 21bd be65 073f 347a ae3c 4614 f13e
00000200: 782a 1fbf ea96 5f3d f73e 9fbf 14db 983e
00000210: 84ad 04be a94e 3bbe 9244 f83e 41a6 a23e
00000220: dac8 eabe 40ba 2cbe f9cc a2bf 409b 94be
00000230: 9723 88be 90b8 cbbe 6018 88bf 700a bebd
00000240: 942d fcbd 448d ea3e 9475 0c3f c2ce 31be
00000250: 2fec 91be 64d1 b43c 4556 a4be 5f0b 2bbe
00000260: 6df0 433d 626f 43be 0b47 bcbc aaac 8ebf
00000270: 3f91 cc3e dc28 1f3f 20aa babe 2277 d3be
00000280: e1ff cbbd 559b a5be d522 84be ea7a 89bf
00000290: 5828 d7bd c8e7 98bf abd3 553e 9ec7 4e3f
000002a0: a9ac 98be c2e3 793d c2e1 503e e848 b6bd
000002b0: cc0f 3a3c d7c9 c6be e99c 3d3f e135 9fbe
000002c0: 5894 06be 5824 42bf 804b 5cbf 7077 8b3e
000002d0: 3466 c5be 4723 b13c 34ba df3d f068 81bc
000002e0: fb8a c3be 3acf 8c3d 9b9d 0cbf facd 573e
000002f0: 19f3 04bf 2977 b63e 31ef 9abe 38e8 023e
00000300: 33d7 1dbe b788 14bf c3dc 9dbf c83d 30bc
00000310: 0b9c 933e 9f97 0b3e 2223 da3d 0896 24be
00000320: 4a2d 3d3e 9d1b b23c db0a d8bd 5a71 45be
00000330: 89e8 013f 5082 0abd d1ac a5bd d5e3 65bf
00000340: 0e7a e5be 5d3c 64be 9ac3 0cbd f0a5 353e
00000350: d764 93be 8ef4 72be 2bd9 2e3f 2be7 04bf
00000360: 3c34 eabd 4d35 83bf 333b f6bb 2e9e 42be
00000370: 60f8 2e3e d297 08be 55f9 4fbf adf0 243f
00000380: 92ce 533f b47d 39bf 1281 c8be 1986 d9bd
00000390: 963b cd3d 48ce ffbe 442f d1be 6651 7dbd
000003a0: 290d 033f bcd3 573d 837d 83be c7d9 e2be
000003b0: f038 8cbf 1815 563b f11e e03e bf00 23be
000003c0: 92a3 d9be 123b 893c d8c8 9dbe 2d47 63be
000003d0: 8979 eebe f6db 023e cffc babc a04b 4c3f
000003e0: b09a 5cbe bbe0 d63d 42af 4fbf 4d72 3abf
000003f0: e0a9 303f dce9 bebe ebe2 123e 4019 51b6
0.19994505 -0.90034527 -0.17120664 -0.021391466 0.004463392 0.54658544 -0.5839641 0.0053800293
-0.5851407 0.5544801 0.471842 0.09326602 -0.75962615 0.6433664 0.010694066 -0.117452845
-0.13887528 -0.75080365 -0.2755902 -0.2186311 -0.22059357 -0.48420668 -1.2531754 -0.06298914
-0.144585 0.44439507 0.6158564 -0.62883025 -0.22763978 0.15790457 -0.6253066 0.15084365
-0.23156542 0.22961374 -0.31378022 -0.17266373 -0.710542 -0.9113688 0.32047442 0.5050597
-0.1492587 0.40733436 -0.41978678 0.19539939 -0.5945282 0.17756248 -0.29659522 -0.37891585
0.058641214 0.111279964 0.7005959 0.0058477335 -0.87347585 0.08554526 -0.87417006 0.121819906
0.059415393 -0.7999233 0.017195925 0.1713281 -0.34439522 -0.50135887 0.3711868 -0.24128465
-0.05261147 0.52262336 0.09559105 0.42170715 -0.2521013 -1.3153538 0.08272883 -1.0313984
0.55972964 -0.6928265 0.20613378 -0.30435124 0.3520128 0.1851982 -0.29003254 -1.4833928
-0.8314431 0.4864623 -0.5901488 0.44551772 -0.88267046 0.2515116 -0.6253882 0.06138011
-0.2715952 0.23681535 -0.4223014 0.28153193 0.044757146 0.018439518 -0.647335 -0.5334723
-0.4837317 0.7254517 -0.25484 -0.31431052 -0.12769037 0.035070613 0.33449528 -0.87809646
0.2234331 -0.13579105 0.1960928 -0.9931422 0.22200808 -0.23658761 -0.80817765 -0.8488449
0.026068669 -0.04456841 -0.26564524 0.009348688 0.26918444 -0.08710128 0.16170944 0.37203634
0.013502191 -0.4778894 -0.83622015 0.04385049 -0.03939716 0.5288962 0.021298505 0.4708578
-0.6217418 0.054587282 -1.244109 0.29854643 -0.12956816 -0.18291725 0.48489815 0.31767467
-0.45856363 -0.16867924 -1.2718803 -0.29024696 -0.26589653 -0.39789248 -1.0632439 -0.092793345
-0.12313381 0.45810902 0.5486691 -0.17364028 -0.28500506 0.022072501 -0.32097068 -0.16703556
0.04783671 -0.19085458 -0.022983095 -1.1146443 0.39954564 0.6217172 -0.3645792 -0.4130183
-0.099609144 -0.3234507 -0.25807825 -1.0740635 -0.10505742 -1.1945734 0.20881526 0.8077334
-0.2981923 0.061008222 0.2039862 -0.089006245 0.011356305 -0.38825867 0.7406755 -0.31095794
-0.13142526 -0.75836706 -0.86052704 0.2723956 -0.38554537 0.021623267 0.10924187 -0.015797108
-0.3819197 0.06875463 -0.54927987 0.21074668 -0.5193344 0.35637787 -0.30260614 0.12783897
-0.15414123 -0.5802111 -1.2332996 -0.010756917 0.2882999 0.13632058 0.10651232 -0.16072857
0.18474308 0.021741683 -0.105489455 -0.19281521 0.50745445 -0.033815682 -0.08089603 -0.8980077
-0.44819683 -0.22288652 -0.034366228 0.17739081 -0.28787872 -0.23726103 0.6830012 -0.51915234
-0.11435744 -1.0250641 -0.0075143813 -0.19005653 0.17086935 -0.13339165 -0.81239825 0.6442974
0.82737076 -0.7245743 -0.39160973 -0.1062128 0.10021131 -0.49962068 -0.40856373 -0.061845206
0.51191956 0.05269216 -0.25681695 -0.44306776 -1.0954876 0.0032666381 0.43773606 -0.15918253
-0.42507607 0.0167518 -0.30817294 -0.2219512 -0.465771 0.12779221 -0.022825627 0.79802895
-0.21543384 0.10492083 -0.811268 -0.7283066 0.6900921 -0.37287796 0.14344375 -3.1158124e-06
